model_weight.pth (torch_old, 24734 bytes, 10 tensors)

fc1.weight f4 [64, 37]
00000000: bba5 6fbe 5fbf fe3d 0081 de3d e386 9b3d
00000010: c44c babc 6b63 e83e 3fbf 293b 5040 103d
00000020: 4ff8 e7bd a13f 97be f309 dcbe 7424 133e
00000030: a7e6 a13c 24d7 c83d da82 16be 714b 06be
00000040: f6c5 d23d 06ab 173e 2d5e 473e 4d8b 1e3e
00000050: ad37 a7bd 9269 6d3e 070e 453e 8e7b 613e
00000060: d087 ce3d a72c 22be 9979 a43d 17c1 0d3e
00000070: ab2e 683e 281b a23e 5989 5cbe e83f 5e3e
00000080: 184e 963d cd0a 063e 3edf 1dbe b6e1 7ebd
00000090: ada3 563b fa1f 8e3e 25a3 44be f275 aa3c
000000a0: 6b9e 81bd 514f 90be cdc0 41be 4924 7dbe
000000b0: c4c8 16bd 492c c738 f76d d73e f316 7dbd
000000c0: 4484 013c 37a5 cfbb 40d8 873c c954 c83d
000000d0: f116 2b3d 810a beba 14e0 13bb f071 27be
000000e0: 5c08 0bbe 3cb9 9dbe 1729 e9bd 2b1d 5bbd
000000f0: 46d4 e73b fe78 06bd 4b6f 29be cd24 b3bd
00000100: d697 b43d db16 08be 2399 c0bd 325b efbc
00000110: b8c7 9bbc dfcb e23d abd7 e1bd 703b 65be
00000120: af52 603e 0ea2 cb3d 0022 9cbd 1a4d b03e
00000130: 7afe a0be 7390 47bd c410 f23d a334 603e
00000140: 0c7c 92be 531e 67be 2fdb 753e 64c8 ccbe
00000150: 4248 b0bd dd8c f43a 75c3 abbd 6f7a ac3c
00000160: a527 943d 5c86 95bd d3d3 423d c3fa a0bd
00000170: 6a9d 173e e468 603e 141e 9bbe 37b5 39be
00000180: 04e2 633d 447d 0d3e 8fb8 bfbe 4cde 54be
00000190: 4f99 153e 7e15 573d b15c 42be 6a67 92be
000001a0: 8042 5ebe e32d 9ebd eb56 8bbd 0690 9ebe
000001b0: eb86 1c3e 5121 a13d eebe 7fbd 465c 703e
000001c0: ec35 dabd 7d1d 2d3e eaba 503d 777d d3bd
000001d0: 96cf 283e d750 02be 61fa 333c 3ee6 b83e
000001e0: 47ff 5b3f aded 363d f28f e1bd a4eb 0f3e
000001f0: 931b 0b3c 86ee 543d 8465 023e f426 b8bd
00000200: 7b1a 54bd d83d 2ebe cd39 5dbe 1899 0fbc
00000210: 0fad 84bd 7767 d23d 34c3 083e 0d34 a43e
00000220: 0b74 df3d 13da 25be 58d3 a83d 3c79 b03c
00000230: 0422 acbc 6835 c83d 2aa1 a13e 89cf 833b
00000240: 2b0e 24be 3548 80be 49a2 433e 40e1 d03b
00000250: 4cc7 023e f05e debe 0f9c a7be 8832 8ebe
00000260: c90b 023d e709 9ebd ab62 803e 99e7 a9bd
00000270: bcaf 66be bfcd 13bf c62d 32be d608 033d
00000280: 6d37 c9bd 655e 17be 70b3 12bf 41df 45be
00000290: adb5 863c 48f0 3ebc 0d3d eabe b432 cfbd
000002a0: 797e 2fbe 6eda 0d3e 3f48 8b3d 4c17 81be
000002b0: 195f 1c3d f05d 77bd 0868 1abe 06f3 363e
000002c0: 9534 e7be a9e1 72bf e985 763e a52c 5fbe
000002d0: a73c e9bd ada4 08be 0869 19bf d88f 4b3c
000002e0: 25d6 153d a8a4 8b3d 4300 3ebe 05bd ce3c
000002f0: b2a8 0cbe 1973 43bd d7c4 833e cd25 233e
00000300: 6aed 3ebe cae2 a8bd b224 6abf 7fda 5dbd
00000310: 1cb6 2cbd 2772 9a3d 8610 0abe e963 ff3c
00000320: c4a2 a13d bb3c eebc d51b 06be 842c cc3d
00000330: 93c0 c9bd 9025 de3d 5496 973d 1954 493e
00000340: 60ed 163c af7a 203e 46cf 343d 45e9 d6bd
00000350: 5936 f73c 28d9 e73d 2876 303e d4aa 803e
00000360: 1d49 45be 6751 9abe 5f1d 28bd 5fa3 5cbf
00000370: 7d53 2b3d f13c 833d 337e ac3e 9813 f5b9
00000380: 7f04 8dbe c4db 16bc 4fc1 b5be f013 3abe
00000390: d210 2e3d 0261 ccbc 1821 683e 9842 803e
000003a0: a6ea c23c fc75 883e cc69 e6bc 2cb3 503d
000003b0: 3ecb 413d cdd7 b33b 49fa 14be 4c72 073e
000003c0: 6cc0 fa3c d1a6 3b3d c595 36be 2d7f 5dbd
000003d0: 74e2 df3d 953f ba3e 61e5 b73e 9ed1 92be
000003e0: 6bc4 3abc ab9f 6bbd 3e52 733e 1372 3f3e
000003f0: 0056 9cbc fbe7 6e3e 84be c2bc 1d08 cf3d
-0.23403065 0.12438845 0.108644485 0.07594087 -0.022741683 0.4538835 0.0025901345 0.035217583
-0.11326658 -0.29540733 -0.4297634 0.14369375 0.019763304 0.0980666 -0.14698353 -0.13114716
0.10291664 0.14811334 0.19469519 0.15482827 -0.08164916 0.23184803 0.19243632 0.22019789
0.10084498 -0.15837346 0.080310054 0.13843189 0.22674052 0.31661344 -0.21536769 0.21704066
0.07339114 0.13090058 -0.15417191 -0.062226973 0.0032751367 0.2775877 -0.1920286 0.020808194
-0.06329044 -0.28185514 -0.18921204 -0.24720873 -0.03681256 9.497308e-05 0.42076084 -0.061789464
0.00790507 -0.006336834 0.016582608 0.097817965 0.041769926 -0.001449898 -0.002256398 -0.16352057
-0.13577408 -0.30805385 -0.113847904 -0.053494614 0.0070748655 -0.03283023 -0.16546361 -0.087472536
0.08818023 -0.13289969 -0.094042085 -0.02921829 -0.019016132 0.110740416 -0.110274635 -0.22385955
0.21906541 0.09943019 -0.076236725 0.34433824 -0.3144415 -0.048721742 0.11819604 0.2189508
-0.28610265 -0.22570162 0.24009393 -0.39996636 -0.08607532 0.0018657703 -0.0838689 0.021054475
0.07234124 -0.07301018 0.047565293 -0.07860329 0.14806142 0.21915013 -0.30296385 -0.18135534
0.055635467 0.13817316 -0.37445495 -0.20787925 0.14609264 0.05251073 -0.18980671 -0.28594524
-0.21705055 -0.07723596 -0.06803688 -0.30969256 0.15285842 0.07867683 -0.062437944 0.234727
-0.10654816 0.1690578 0.050959505 -0.10326665 0.16485438 -0.1272615 0.010984988 0.3611316
0.859364 0.04466026 -0.110137835 0.14054734 0.008490461 0.051985286 0.12734038 -0.08991805
-0.051783066 -0.17015779 -0.2160408 -0.008764528 -0.06478321 0.102736406 0.13355714 0.32070962
0.10910805 -0.1619647 0.082434356 0.021542184 -0.021012314 0.097758114 0.3156827 0.004022543
-0.1602103 -0.2505509 0.19104876 0.006374508 0.12771338 -0.43431807 -0.3273625 -0.27772927
0.03174952 -0.077167325 0.25075278 -0.08296127 -0.22527975 -0.5773582 -0.17400274 0.03199085
-0.09825025 -0.14782102 -0.5730505 -0.19323446 0.016444052 -0.011653967 -0.45749703 -0.10117093
-0.17138089 0.13852856 0.06800889 -0.25213087 0.03817663 -0.06039232 -0.15078747 0.17866144
-0.45157304 -0.9487558 0.2407452 -0.21794374 -0.11388522 -0.13344069 -0.5992589 0.012424432
0.036581177 0.06818515 -0.18554787 0.025236616 -0.13736227 -0.047717188 0.25736114 0.15932389
-0.18645254 -0.082463816 -0.9146224 -0.054163452 -0.04216586 0.07541304 -0.13482866 0.03117557
0.07892373 -0.029081693 -0.13096555 0.09969428 -0.09851184 0.10847008 0.0740172 0.19660987
0.009211868 0.156718 0.044142984 -0.104937114 0.030177282 0.11320716 0.17232573 0.25130332
-0.19266172 -0.3014023 -0.041043635 -0.86186785 0.041827668 0.06408108 0.33690032 -0.0004674464
-0.27542493 -0.00920767 -0.35499045 -0.18171668 0.04249651 -0.0249486 0.22668874 0.25050807
0.02379353 0.26652515 -0.02812662 0.05095212 0.047312967 0.005488372 -0.14548601 0.13227195
0.030609332 0.045813385 -0.1783057 -0.054076362 0.109318644 0.36376634 0.3591719 -0.2867555
-0.011399369 -0.057525318 0.23761842 0.1869586 -0.019083977 0.23330681 -0.023772486 0.10108969

fc1.bias f4 [64]
00000000: 7223 1b3e 2a63 acbd 7bd6 23be 4de5 18bd
00000010: 793a 0e3e 47e6 823c 61fe 87bd 43aa 5d3d
00000020: 779c 06bd 8f63 28be da9e 103e 6777 463e
00000030: 6710 1a3e 9eb6 0f3e ac98 84bd f523 13be
00000040: f253 c13d 5d78 4abd 8a60 85bd ff7b 53be
00000050: 9ec9 d3bd e8cf d13d 44fa ac3d 4fd0 123d
00000060: abb2 10be 69f4 1c3e 981d e7bb bd4b a1bd
00000070: ae7f 2d3e afed a83d 4939 9cbd 5e4d 2bbe
00000080: 55ba 453e 59d4 9abc f751 62bd 1595 113e
00000090: 2b57 f9bc d0dc 6b3d dafd 723d 6d89 20be
000000a0: 778d 0cbe 912c e7bc 9b60 c5bc f1ca 913d
000000b0: 69dd bf3b 059e e6bd 1509 563c e2df 33be
000000c0: 1bc7 45bd 4170 813d fa18 46be 1bde e63d
000000d0: 070b f03a 53d3 9fbd 4905 1ebe ba9f f73c
000000e0: 308b 393d 90ef a5bb 5e42 3bbe 3ebb 80bd
000000f0: c433 e2bc d2fd 803d 603a 5f3d f029 403c
0.1515024 -0.084173515 -0.15999787 -0.037328053 0.13889493 0.015978945 -0.06640316 0.054117452
-0.03286406 -0.16444229 0.14123097 0.19381486 0.1504532 0.14034507 -0.06474432 -0.14369185
0.094398394 -0.049431194 -0.06512554 -0.2065277 -0.1034119 0.10244733 0.08446172 0.03584319
-0.14130656 0.1532761 -0.0070530884 -0.07875774 0.16943237 0.082484595 -0.07628114 -0.16728732
0.19309361 -0.018900083 -0.05525395 0.14217027 -0.030437073 0.05758363 0.059324123 -0.15677424
-0.1372584 -0.028219493 -0.024093917 0.07118786 0.0058552516 -0.112606086 0.013063689 -0.17565873
-0.048285585 0.06320239 -0.19345465 0.11272832 0.0018313833 -0.07803979 -0.15431704 0.03022753
0.045298755 -0.0050639585 -0.18287036 -0.062857136 -0.027612574 0.062984124 0.05449903 0.011728749

fc2.weight f4 [32, 64]
00000000: d294 2fbe a2fe b43d 00e7 b2bd 3033 b4bc
00000010: f8bc 8c3e a51d a6bd 7863 a93d af75 49bb
00000020: 9d24 223e dca2 f9bd cadf d83c 0539 5dbc
00000030: 4382 11be b10d 013e 56d5 5bbd 7e71 d83d
00000040: 8668 debe 7a88 b53d 240a 643d ee44 113e
00000050: 4700 8f3d dea7 e23c 33c4 3d3e 5148 53bd
00000060: 946e 0ebe 9e97 01be 8d24 9c3e 52fa 59be
00000070: 179a 193d 4ef3 7ebd cb5d 6e3e 6003 f43b
00000080: 6af6 343e 4c15 eabb 0652 463d 2f4f 60be
00000090: 0cf6 61be 2c1a 233e 6f8c a63d ea24 51be
000000a0: e0d5 42be c41d d9bc bdb5 003e b6f1 b13b
000000b0: 9541 1c3e 2b4c 93bc e1a5 7cbe 4064 283e
000000c0: 01e9 02be c84b f13d 2ecc 8ebd 2d5a 88bd
000000d0: f052 84bd 1716 a4be 46ca 093e 0465 2bbd
000000e0: a831 353d 4a61 55bd 40d1 41be cb82 8d3d
000000f0: b1bd b43c 08b6 983d a7d4 24be 68c6 adbe
00000100: be04 653d eb33 913d 2a62 50be a8bb 14be
00000110: c103 173e 833e b93d ea01 19bf 31d1 953d
00000120: 7850 c43d 460e 993d dffa 9ebb b09f 013e
00000130: 9d4c 90bd 3c6b 533e 4a02 dcbd 0fab 73bc
00000140: c1da b73d d5a7 0f3e d967 d0bd 0160 1abe
00000150: 4eb8 1a3e d785 afbd f915 cd3d 1732 c9bd
00000160: 726a 5abd 6496 513b c0f4 cabe f4da a8bb
00000170: 7f17 8b3d 3d86 d2bd 1693 7d3d d203 993d
00000180: a88a 82be adfc b3be a15f da3e 41ea 1fbe
00000190: 2ec5 f3bd a6d9 953b 54fc 943e 6817 debd
000001a0: 3493 f7bd 5b7b 35be 53cd 3abc 226f 49be
000001b0: 6ad8 59be 8a64 f8be 999e b7bd 7ce4 d3bc
000001c0: 085b 62bc b2d0 4cbe de15 993d 80f9 963d
000001d0: 5e8a 19be 07ae 39be ce89 0fbe 0220 473c
000001e0: 0d97 8bbe 36ec 1f3e 64a4 a23d 5e59 18bd
000001f0: 8f66 9abd c7f5 12bd dff7 35be 5bb2 e6bd
00000200: 2227 ecbd 92b2 64be c767 a7bb 0016 953c
00000210: ba25 243c 6ec6 953d 4771 d83c 20f2 473d
00000220: 5feb cbbb ed47 e5bd de14 2ebd a245 c5bd
00000230: ba6b 55be e8de 333e e88c 953d 6fe7 91be
00000240: 0a35 44bd a545 163d 88e4 543e 7845 21be
00000250: 0c57 44be ba57 b8bd 444c 33bb 78dc 1ebe
00000260: 3927 1e3c f13d 883d 346d b43d d0e0 a33d
00000270: 9d05 e83c 1c9d 263e 551d 743c 438b d93c
00000280: 318b f3bd 63c4 5bbe cc51 32be 3d68 c4bb
00000290: 047b e13d d871 c83d 6b3b 8a3d 3d00 f63d
000002a0: 88b4 fa3d 12ae f3bd a25f 7abd 2725 29be
000002b0: 9d3e 59be be10 3d3e d23a 9cbc 9361 03be
000002c0: 4df0 bd3b 4c12 10be dd7d fdbd 085e 213d
000002d0: 9448 50be 1f4f d2bd 266f 6abe 06dd 9dbd
000002e0: e068 78be bf9b 73bd c426 af3d 569f 90bd
000002f0: 8372 48be adf6 813d 1473 e43b bd4e 7cbd
00000300: f083 343d 6578 14be 4a04 83bd 4daa 0fbd
00000310: ef8d 99bd 68e2 9b3d d97f 8b3c 072d b83d
00000320: 2a9c 013d 03db 0c3c 8a53 f4bc f134 473e
00000330: d084 abbd 4ee8 393e ec57 86bd a2ca 08be
00000340: 6133 433c 59e0 12bd 2ca7 8abd cc36 56bd
00000350: 260f ba3d d87b 0b3e 10c8 743e 5edf 3c3c
00000360: ea8a 073e d7e2 293e 4290 3b3e 3391 9e3e
00000370: 4e89 233e 97e5 b83d 26e6 973d fab5 ccbc
00000380: 6424 82be 745a 8dbd af16 d7bd 7302 f83c
00000390: d110 00be 8472 8c3e 21b4 783d f16e f6bb
000003a0: 9bda c43d 65b0 f73d 03e0 8cbb 0d1d 03be
000003b0: 7bf6 1a3d 81ee 083d f5ea 083c 5dba 17bd
000003c0: ffc7 8e3e ca21 ea3c 8ea9 24be 30ed 053e
000003d0: 5fdb 3b3d 487a 8b3d 3720 83bd c068 e83d
000003e0: df3f 4bbc d58c e8bd 1f42 aabd 4e56 e03d
000003f0: 515b 2fbe 5b02 e03d c557 0cbe 1122 8abc
-0.17146614 0.0883763 -0.08735466 -0.021997064 0.27487922 -0.08111123 0.08270925 -0.003074031
0.1583428 -0.12189266 0.026473898 -0.013502364 -0.14209847 0.12602879 -0.05367025 0.10568522
-0.4343912 0.088639215 0.055673733 0.14186451 0.06982475 0.027667936 0.18531875 -0.05158264
-0.1390937 -0.12655494 0.30496636 -0.21286896 0.037500467 -0.062243752 0.23277967 0.0074466914
0.17672125 -0.007143652 0.048418067 -0.21905206 -0.22066516 0.15927953 0.08132254 -0.20424238
-0.190269 -0.026503451 0.12569328 0.0054304255 0.15259393 -0.017980656 -0.24672653 0.16444492
-0.12784196 0.11782032 -0.06972538 -0.06657825 -0.064611316 -0.32048103 0.13456067 -0.041844383
0.04423681 -0.052094735 -0.18927479 0.069097124 0.022063108 0.07456595 -0.16096745 -0.33940434
0.055912726 0.07089981 -0.20349947 -0.1452471 0.14747526 0.09045126 -0.59768546 0.07315291
0.09585661 0.074734256 -0.0048516835 0.12658572 -0.07045863 0.20646375 -0.10742624 -0.0148723265
0.08977271 0.14028867 -0.10176057 -0.15075685 0.15109369 -0.0857045 0.100139566 -0.09824007
-0.05332417 0.003198051 -0.39639854 -0.0051530544 0.06791591 -0.1027951 0.06190785 0.07471432
-0.2549641 -0.35153714 0.42651084 -0.15616705 -0.119028434 0.004573065 0.2909876 -0.10844308
-0.12088624 -0.17722838 -0.011401492 -0.196713 -0.21273962 -0.48514205 -0.08965797 -0.025865786
-0.013815649 -0.20001486 0.07474874 0.07371807 -0.14994189 -0.18132792 -0.14017412 0.012153627
-0.2726368 0.15617451 0.07941511 -0.037194602 -0.07539093 -0.035878923 -0.17770337 -0.11264487
-0.115309015 -0.22333744 -0.005108807 0.018198967 0.01001876 0.07313238 0.026421202 0.048814893
-0.006223127 -0.111953594 -0.04250037 -0.09632422 -0.20841876 0.175655 0.07302266 -0.28496882
-0.047902144 0.036687512 0.20790303 -0.15749156 -0.19173831 -0.090011075 -0.002735869 -0.1551379
0.009652906 0.066524394 0.08809891 0.08001864 0.02832299 0.1627087 0.014899571 0.026555663
-0.11891783 -0.21461634 -0.17414016 -0.0059938715 0.110097915 0.09787339 0.06749614 0.12011764
0.12241465 -0.11898436 -0.06112636 -0.16518079 -0.21215291 0.18463418 -0.019071016 -0.1283019
0.0057964684 -0.1406948 -0.12377522 0.039396316 -0.20340186 -0.102689974 -0.22893962 -0.077081725
-0.24258757 -0.059474703 0.08552316 -0.07061641 -0.19574933 0.06345878 0.006971726 -0.06159853
0.044071138 -0.14499052 -0.063973024 -0.03507452 -0.07497775 0.07611543 0.017028736 0.08992963
0.03164307 0.008597138 -0.02982499 0.1945379 -0.08374941 0.18155023 -0.065597385 -0.13358548
0.011914105 -0.035858486 -0.06770167 -0.052298352 0.090849206 0.13621461 0.23904443 0.011527864
0.13236585 0.16590439 0.18316749 0.30970153 0.15970346 0.09028166 0.07416944 -0.024989117
-0.2541839 -0.06902018 -0.105023734 0.030274605 -0.12506415 0.27431118 0.06071866 -0.0075205495
0.09612008 0.120941915 -0.004299165 -0.1280405 0.03783272 0.03343058 0.008356799 -0.037042964
0.2788696 0.028580565 -0.16080305 0.13078761 0.045863505 0.06810433 -0.06402629 0.113481045
-0.012405365 -0.113549866 -0.08313393 0.10953961 -0.17124678 0.10937949 -0.13705356 -0.016861947

fc2.bias f4 [32]
00000000: cd10 b6bc 77bc bebd b419 3fbd 415c 033d
00000010: cc22 383c 13ed ac3c 1143 97bc ad7f 8ebd
00000020: 8287 3b3d e9be babd 9707 b13d 600d 84bd
00000030: 84ea d33d 7fbd f03d d63f b33d 77c0 eabb
00000040: a85c acbd ca13 dd3d f9ec f73c fca4 3ebd
00000050: 88f6 c73c 130e abbc 47ae 4a3e a0ed a93c
00000060: 187f c43d 38cb bcbd f4dc ef3d ad73 643c
00000070: 8fba d33d 70ff 613d 4485 de3d 4301 e33d
-0.022224808 -0.093132906 -0.04665537 0.032070402 0.011238765 0.02110914 -0.018464597 -0.06957946
0.045783527 -0.091184445 0.08644026 -0.064478636 0.10347465 0.117548935 0.0875241 -0.007164057
-0.0841611 0.1079479 0.030264365 -0.04654406 0.024409547 -0.020880735 0.19793044 0.020743191
0.09594554 -0.092184484 0.11712065 0.013943595 0.103383176 0.055175245 0.10865262 0.11084225

advt.weight f4 [4, 32]
00000000: 987c 833e f783 3dbe 08d7 c13d 6a37 3ebe
00000010: 8f89 533d 0a45 6abe f6ab 4a3e 418b 8dbd
00000020: 7f3f 40be e152 b6be 02bf ca3e 53fe 003e
00000030: 6db5 833e 6d0b a73d 4714 28bc 7f3b 4cbd
00000040: 8a13 b2bd c302 523e 4ea5 5abd f760 723e
00000050: 48f5 14be 820b b13e 09cf f6bc 6492 833e
00000060: b8d7 61be f8ba 31be a373 30bd ed63 b33d
00000070: 4d0e c13e 477e 673e 49c8 89be 4089 ae3d
00000080: c89f c2be e5ff b63d fcf8 43be d0ff 253d
00000090: 3245 b3bd 41b2 5a3e 8f61 1e3c 168b 433d
000000a0: 17d3 40bc 4c40 c93b c4ba 0c3d 1986 ecbd
000000b0: 7253 dbbd 8e3f abbe 055b 80bd 3a11 b73b
000000c0: 8adb 2eba 45b3 3c3e 231d 923e db62 d1bd
000000d0: 38da ee3c 66b0 743d bb45 153e 58c7 d4bd
000000e0: df2b 203e 8766 8cbc 0d7d 1b3e 0304 a13e
000000f0: 2dc7 463e 69d5 a1be 7e20 793e 8240 e63d
00000100: 1bba 15be f4d6 0cba bfc0 083e ccd4 45be
00000110: 6fc0 2a3e 3cda 1dbe c65e b8bd dcf6 74be
00000120: 9301 2ebd 5f50 aabe 772c 5c3e 4769 233e
00000130: 29e3 cfbe a8b1 0a3c 43c0 c73d 8b4e 9d3c
00000140: dd21 20bd 4077 1d3e 0de4 bd3e 07a0 fa3e
00000150: fac4 ecbc a42c 323e dd5b 97bd e658 383e
00000160: 7aba 48be a5d0 d1bd 83a3 a3bd cc35 b13e
00000170: 50bd db3e d097 5dbe 4821 d3be b81f 8e3d
00000180: eb07 123f 8bb7 083e b76c 753d 82cd 1b3e
00000190: 6a9a 3c3e 239d 6dbe 13f4 cb3b f4b7 193d
000001a0: 4009 69be b7a6 72bc 096d 9e3d cd06 b23d
000001b0: 7721 093f 5160 403d e65d a1bd 396b 33bd
000001c0: 87a4 68be 0d03 94bd 2713 02bd add4 e73d
000001d0: 5707 32be 8fd3 f73d fddb 0a3e 8711 573c
000001e0: 0007 593e 64c2 b03d 9f68 85bd 20fb a7be
000001f0: 3dda 65bd f82e 5a3f 0e55 7fbc ba77 583d
0.25680995 -0.18507372 0.09464842 -0.18575826 0.051644858 -0.22877899 0.1979216 -0.06911326
-0.18774222 -0.35610107 0.39598852 0.12597017 0.25724354 0.08156476 -0.010258741 -0.049861427
-0.08695133 0.20508866 -0.053380303 0.23669802 -0.14546692 0.34579092 -0.030128019 0.25697625
-0.22054946 -0.17356479 -0.04307903 0.08759294 0.37706223 0.22606765 -0.26910618 0.08522272
-0.38012528 0.08935527 -0.19137949 0.040527165 -0.08753432 0.21357061 0.0096668145 0.047740065
-0.011769078 0.006141698 0.0343578 -0.115490146 -0.10709275 -0.33446926 -0.062673606 0.0055867704
-0.0006670287 0.18427761 0.28537855 -0.10223933 0.02915679 0.05973854 0.14577381 -0.10389584
0.15641735 -0.017138733 0.15184422 0.31448373 0.19411917 -0.31608132 0.24328801 0.11242773
-0.14621775 -0.00053726067 0.13354777 -0.19319457 0.1667497 -0.15415281 -0.090024516 -0.23922294
-0.04248197 -0.33264443 0.21501337 0.15958129 -0.40602997 0.008465208 0.09753468 0.019202491
-0.039094795 0.15377522 0.3708805 0.48950216 -0.02890252 0.17399842 -0.073905684 0.18002662
-0.19602385 -0.10244874 -0.07990172 0.34611356 0.4291787 -0.21639943 -0.4123633 0.069396436
0.5704333 0.13351266 0.05991813 0.15215114 0.1841828 -0.23204474 0.0062241643 0.037528947
-0.22757435 -0.014810256 0.077356406 0.086927034 0.5356669 0.046966854 -0.07879238 -0.043803427
-0.22719012 -0.072271444 -0.031756546 0.113198616 -0.17385612 0.121008985 0.13560481 0.013126737
0.21194077 0.08630827 -0.065140955 -0.3280878 -0.05611633 0.8522792 -0.015584243 0.052848555

advt.bias f4 [4]
00000000: cbf2 583d a4c5 ce3d dc34 9f3d 9fd5 313d
0.05296592 0.10096291 0.07773754 0.043416616

value.weight f4 [32, 32]
00000000: e666 fdbd c30c 6ebe 374e 81be 5a23 4bbc
00000010: 250a ac3e 0467 603e 3a42 e23d 7254 183e
00000020: 5207 8f3e a935 213d 2c0d 5cbd ba81 00be
00000030: 85f6 e3bd 697f 1a3d 7933 6dbd 4865 e7bd
00000040: b7a5 8fbc fca1 5a3e 5f6e 9fbe d96d 92be
00000050: d861 bebc c10c c1bc c53a 0b3e 5f42 d33c
00000060: c66c c4be 318b 90be c32d 963d b1fe b03d
00000070: 6379 5dbe 33fb 14be ccf9 d9bd 1e0c 053e
00000080: c3cf 9cbc 14e4 c9bb 47b5 f9bd 4287 67bd
00000090: 785c 1e3d 76fc 76bd 52db 88bd ab3d adbe
000000a0: 0588 c6bd ed14 1ebe 78b9 033e e6bc 183e
000000b0: e274 bebb c421 02be 65da 103d bba9 83bd
000000c0: 9209 8fbe ebdf 2f3c 0912 213e 0a2e 4f3e
000000d0: 4c90 803e 3081 96be 45aa 48bd 8cac 933b
000000e0: 5861 a43e 5e7e 77be a24e 903e 8218 633e
000000f0: cc11 34be 4265 92bc e218 a13e 1f18 19be
00000100: e35a 7ebe 124c 733e 0e20 50be 0ae7 8cbc
00000110: 1d0e 203e 3a3e 68bd f01e 023d e5b2 873d
00000120: e094 afbd 1172 df3d 2999 91be 80d2 07bb
00000130: 3db1 673d abe3 82be 9cf8 1f3e 76e3 33bd
00000140: c4e6 973e c98a 6b3d e5a2 0fbd dbf6 98be
00000150: 84e0 9a3d e3fb 2a3e 2ada 8fbd 9b2b 29be
00000160: f34a 97be 46ab 12be 8cbe 913d 9e2c 3b3d
00000170: 9964 07bd ee69 0b3e c039 7c3d 5343 0d3e
00000180: 36a2 37be c5c5 f5be 6d1a c73c 26e5 debd
00000190: b215 80be 0121 db3e 70f4 37be cf61 c1be
000001a0: dd5c 983e cea2 41be 87da df3d c24e bd3c
000001b0: f67e 1a3e fc00 903d f3a7 c2bc 520b c5bd
000001c0: a5f7 b3bd d2be 143e 8c6b 423d 457f d73d
000001d0: 2d01 9fbe c07e 843e 4cdf 0a3e 3075 33be
000001e0: 7f82 93be 7aa0 5dbe d303 88be 4ac1 b93c
000001f0: d921 96bc 34c7 113e df0f 64be 78d1 46be
00000200: 6b4a de3e d37d 8fbe a16b d83d ae95 d9bd
00000210: f47d b73c ac6c 3abe ea45 203e 6b1d 3cbe
00000220: 6867 803e 2a7d 84bd b43f 513e c40a 80bd
00000230: c7db a9bd d32e c33d a1df e73d 5b4d be3d
00000240: 32ac 383e 257b 923c cf8b 3fbe 848c 8b3e
00000250: 8720 13be 0aa9 903e ef9a dcbd e511 b63d
00000260: 9951 9ebe 3487 9f3d 8703 753d 79fe 9ebd
00000270: ad43 8f3e 1ef1 083e 8744 adbe f127 bebc
00000280: 13eb 97be e784 00bd f7b2 9bbe ec7f 1a3c
00000290: ca22 4a3e 5ed9 8ebe 3367 38be cb14 f7bc
000002a0: 8ac0 3bbd 4fef 85be 1b70 7b3e fc1a 8d3d
000002b0: 90ef c0bd c8df b93d 889c b1bc c437 0ebe
000002c0: 2dff 2bbe 5d54 433e 5789 963e 9dc2 353d
000002d0: c040 343e c265 a4bd be59 a93d 4eca 3dbd
000002e0: d55e 59be a747 0ebe bb40 45bb 9ee5 d03e
000002f0: 8b09 063e a4de a2be 1312 04be e263 1c3e
00000300: 8a1d a13b 1bae e2bd 3ab6 403e 9890 753e
00000310: 6abc b63c 58ed a2be 66b5 4e3d bb0c 653e
00000320: 4711 51be fea4 283e df24 243d c947 3fbd
00000330: 1dc2 fd3d d246 89be 6c76 b0be a73c a13e
00000340: a876 bb3c 705b 803d e2eb 1b3b 87c3 d03a
00000350: f093 923d 97c3 e5ba af20 0cbe ffc2 07be
00000360: fe8c 92be 830c 563e 3be2 893e 850c e0bc
00000370: bcf3 b9be c468 08be 2deb b3be ac63 383c
00000380: 3f6f 053e f88d c33c d5aa ef3c b17c b43d
00000390: 8288 f73d 2a9b a93d b273 ca3d 1e86 9b3c
000003a0: 32e6 df3d 7c9c 11be ce54 eabd 38bc 423d
000003b0: 685d e13c b6ff 1abe 4edf 03be 907e 0dbe
000003c0: 6537 043e 4ab3 ec3d 278f bebd b87f da3c
000003d0: 17e4 91bd dc91 ff3d f23d 3fbe 998e 1bbe
000003e0: dcb5 16be 9a55 893d 68d0 f8bd 42a2 d73d
000003f0: fcc2 743d 38f6 b0bd 140b 82bd c182 92bd
-0.12373142 -0.23247056 -0.25254986 -0.012398565 0.3360149 0.21914297 0.11047788 0.14875963
0.27935272 0.039357815 -0.0537235 -0.12549487 -0.11131004 0.037719164 -0.057910416 -0.11298615
-0.017535074 0.21350855 -0.31138894 -0.28599432 -0.023240015 -0.023565652 0.13596638 0.025788484
-0.38364238 -0.28231195 0.07332947 0.086423285 -0.21628337 -0.1454895 -0.10643348 0.12992904
-0.019142037 -0.0061612222 -0.12192779 -0.056525476 0.038662404 -0.06029936 -0.06682457 -0.3383611
-0.096939124 -0.1543767 0.1286372 0.14915809 -0.0058122734 -0.12708193 0.035364527 -0.06428858
-0.2793699 0.010734539 0.15729536 0.20232406 0.2511009 -0.29395437 -0.048990507 0.004506653
0.32105517 -0.24169299 0.28184992 0.22177318 -0.17584914 -0.01787055 0.31464297 -0.14950608
-0.24839358 0.23759487 -0.20324728 -0.017200012 0.15630384 -0.05669997 0.031767786 0.06625918
-0.085733175 0.10910428 -0.28437164 -0.0020724833 0.056565512 -0.25564322 0.1562218 -0.043918096
0.29668248 0.057505403 -0.035067458 -0.29875836 0.07562354 0.1669765 -0.07024033 -0.1652054
-0.2954937 -0.14323148 0.07116422 0.045696847 -0.03305492 0.13614628 0.061578512 0.13795213
-0.17932972 -0.4800245 0.024304593 -0.1088355 -0.25016552 0.42798617 -0.1796434 -0.37769935
0.2975835 -0.18909761 0.10930353 0.023108844 0.15087494 0.07031438 -0.023761725 -0.096213
-0.08787469 0.14525917 0.047465846 0.105223216 -0.31055585 0.25877953 0.13561743 -0.17525172
-0.28810498 -0.21643248 -0.26565418 0.022675175 -0.018326687 0.14236146 -0.2227168 -0.19415843
0.4341615 -0.28025684 0.105674036 -0.10624252 0.022398926 -0.18205518 0.1565167 -0.18370597
0.25078893 -0.06469186 0.20434457 -0.062520534 -0.08293872 0.095304154 0.11321951 0.09292098
0.18034437 0.017880986 -0.18705676 0.27255642 -0.14367877 0.28253967 -0.10771739 0.08890132
-0.3092163 0.0778946 0.059817817 -0.077633806 0.2798132 0.13373229 -0.33841345 -0.023212405
-0.29671535 -0.031376746 -0.30409977 0.009429913 0.19739833 -0.27900213 -0.18008117 -0.030161282
-0.045837916 -0.2615914 0.24554484 0.068899125 -0.09420693 0.09075886 -0.021681085 -0.1388846
-0.1679656 0.19075151 0.29401657 0.04437505 0.17602825 -0.08027221 0.0826907 -0.04633551
-0.21227582 -0.1389452 -0.0030098397 0.40800184 0.13089578 -0.31810486 -0.1289752 0.15272477
0.0049168514 -0.11068364 0.18819514 0.2398094 0.02230664 -0.31821704 0.050465964 0.22368138
-0.20416747 0.1646919 0.040074226 -0.04669932 0.1239054 -0.26811844 -0.3446535 0.31491587
0.022883728 0.0626744 0.002379172 0.0015927412 0.07157123 -0.0017529604 -0.13684343 -0.13257979
-0.28623194 0.2090321 0.26930413 -0.02734972 -0.36318767 -0.13321215 -0.35140362 0.011254232
0.13030718 0.023871407 0.029256264 0.088128455 0.12086584 0.08281548 0.098853484 0.01898485
0.10932578 -0.1421985 -0.114419565 0.04754278 0.02751036 -0.15136608 -0.12878153 -0.13817811
0.12911756 0.11557634 -0.09304648 0.02667223 -0.07123583 0.12478992 -0.18675974 -0.15191115
-0.14717811 0.0670578 -0.12149125 0.10528995 0.059756264 -0.086407125 -0.06349769 -0.071538456

value.bias f4 [32]
00000000: 5713 78be 03b4 233e cd2a cebc 8460 f7bc
00000010: 45b0 0d3e b5f0 273e da5a dfbd 34fa 3fbe
00000020: d081 1ebe 5f24 193c e9b1 58bd ce68 6d3e
00000030: 6a89 72bd c3d5 e23e 845a a13e 04f7 f83d
00000040: eb66 863b f672 413e 27d1 663d 3be9 b4bd
00000050: a410 59bd 1c97 893e 6cbf 353e 9aa5 383e
00000060: 492f 96bb bb96 fa3d 2ad9 70be 730c 5c3e
00000070: c7e7 ff3d bf7d 863e c158 85bb 5c96 9c3e
-0.24226128 0.15986638 -0.025166893 -0.03019739 0.13836773 0.16400416 -0.109060004 -0.18747789
-0.15479207 0.00934705 -0.052904043 0.23184511 -0.05921308 0.44303712 0.3151437 0.121564895
0.0041016242 0.1889151 0.056351807 -0.08833548 -0.052994385 0.268731 0.17748803 0.18031922
-0.0045832735 0.12235781 -0.23520342 0.21489124 0.1249538 0.26267812 -0.004069418 0.30583465

fc3.weight f4 [4, 36]
00000000: d6dc 5bbe d2d5 99bd 91a4 78be 5498 3d3e
00000010: 4479 e13c 4704 813e 5986 c63d 8d6f 003f
00000020: dd6f 6ebc 0212 22be 4ddd 243e d433 38bd
00000030: b97c 173d 6a2f 5a3e 0354 89be 6591 c73d
00000040: ac3d d7bc d6db a63e 551c f63d e3da 923e
00000050: f3ad 5cbd 2aff 443d 03d6 a9be 0714 86bd
00000060: 2033 afbe f54e 873e a27e 683e ea7a 023e
00000070: ba7a 023e 39d7 163e 7ede 573d 59da 0b3e
00000080: fd75 01bf 0461 8f3d b6c7 eabd b8c0 753e
00000090: f712 ebbd 3ee6 723e 8efb 9b3c 651a f4bd
000000a0: c18d 0dbe d2bf 5a3e 2745 2bbe f49e 213e
000000b0: 5774 e1bb 5076 863d 47dc b13d faec bdbb
000000c0: 8222 ac3d ba45 6b3e 7c8a fdbd f9bc 963e
000000d0: 4a77 34bd f2c3 9b3e cc40 763e b102 b1bd
000000e0: b5b8 45be b91a a63d 6a58 933e 4ec8 6cbe
000000f0: a063 a2be dd79 9c3e ecb4 593d fb25 043e
00000100: 733b e13e b095 5a3e 7f79 913d 51e6 833e
00000110: ada7 c9bd 329b 4d3e 0cf7 0d3e f0ea 8e3e
00000120: 2819 46bc ee39 b83d 0f14 46bd 320d babd
00000130: e2e1 ecbe a4a3 efbd c76c 2dbe 82c1 b73e
00000140: 6a29 d73d 4c01 063c a6c3 343e cc14 92bb
00000150: 0806 01bb aabd c03a 5313 f23d c374 733d
00000160: ba38 38be 5fdb da3d 94f0 8e3e 1bed fd3d
00000170: 7ef0 bbbe 85f6 573e 7211 5dbe 3c0b c63e
00000180: 9cef 2cbe f774 083e f22d 883e a958 813e
00000190: 4596 db3e 91b7 ecbd 222b 633d 74ff 1abe
000001a0: b6f6 91bd 0e59 5b3e 318f 77be 8f13 a63d
000001b0: 01cb 20be e4ad ed3e 907f 3ebe c296 d83c
000001c0: 9f9d 8abe ca90 db3e f473 313d 4a6d dabc
000001d0: 42dd 7abe d3aa 5f3e 0ab1 7a3e f029 123d
000001e0: ff38 873d 61b2 813e 248f 823d ab03 0d3d
000001f0: faeb 14be aab3 4e3e f75f ac3e 68e1 dc3c
00000200: bce2 a5be d3a4 043e e847 3f3d 9c71 8d3e
00000210: d918 f5bd f12b a03d fbd9 c3bd a33a 733e
00000220: d2e9 033e fbea 9f3c 56d4 d53d 1291 cc3c
00000230: f513 8cbd 7eed ba3d c714 9fbd 676f 823e
-0.21470961 -0.07511486 -0.24281527 0.1851514 0.027523644 0.25198576 0.096935935 0.50170213
-0.0145530375 -0.15827182 0.16100045 -0.044971302 0.03698418 0.2130715 -0.26821908 0.09744529
-0.026274525 0.32589597 0.12017123 0.28682622 -0.05387683 0.048094906 -0.3317109 -0.06546789
-0.34218693 0.26427427 0.22704557 0.127422 0.12742129 0.14730538 0.05270242 0.13657512
-0.5057066 0.07000926 -0.11463873 0.23999298 -0.11478227 0.23720643 0.019040849 -0.11919097
-0.13823606 0.21362236 -0.16725598 0.15783292 -0.006880324 0.06565535 0.08684593 -0.005796072
0.08405019 0.22975817 -0.123799294 0.2944105 -0.044059075 0.30422932 0.24048156 -0.086430915
-0.19308741 0.08110566 0.28778392 -0.23123285 -0.31716633 0.30561724 0.053151056 0.12905113
0.4399067 0.21346164 0.07103252 0.25761655 -0.09846435 0.20078734 0.13863772 0.27913618
-0.012090959 0.08995424 -0.048358973 -0.09084548 -0.46266085 -0.11701134 -0.16936027 0.35889822
0.10505946 0.00817902 0.17652759 -0.0044580456 -0.0019687433 0.0014704962 0.11820092 0.059437525
-0.1799039 0.10686373 0.27917922 0.1239874 -0.36706918 0.21090133 -0.21588686 0.38680446
-0.16888279 0.13325869 0.26597553 0.25262955 0.42888084 -0.1155845 0.055461057 -0.1513651
-0.071271345 0.2142069 -0.24175717 0.08109199 -0.1570244 0.4642173 -0.18603349 0.026439074
-0.2707338 0.42883903 0.043323472 -0.026663441 -0.24498466 0.21842508 0.24481598 0.035684526
0.06602668 0.25331405 0.06374958 0.034427326 -0.14543143 0.20185724 0.33666965 0.02696295
-0.32399547 0.129535 0.046699435 0.2762574 -0.1196763 0.07820881 -0.09563061 0.23752837
0.12882164 0.019521227 0.104408905 0.024971519 -0.06839744 0.09127329 -0.07767635 0.25475618

fc3.bias f4 [4]
00000000: a9da c03e 0d5c e13d a09a a43e 7532 863e
0.37666824 0.110038854 0.3214922 0.2621037
